toy_convnet-compressed-28-03/base_model/model.pth (torch, 42652 bytes, 10 tensors)

block_1.0.weight f4 [8, 3, 3, 3]
00000000: b021 12be 6f52 8abc e57e 12be 81d9 f33d
00000010: ee70 e63c 7345 0abe 5e7d 66bd ff90 ff3c
00000020: 8c6d f43d 084f 36be f726 16be 6fdf af3d
00000030: 3607 003c 2b7d 3f3e 1c2e fb3d c3ce 2fbb
00000040: 245e 023e 0f03 0b3e 7bb2 d93d 8c53 48bd
00000050: 3bdb e23c 5a0a 393e ec44 163d d831 413c
00000060: 6694 393d 409a 373e 1c71 19be 5aa7 013e
00000070: 67f6 ebbd ebeb 68bd 1d69 153e 619d d7bb
00000080: f9ba b93d 0808 dbbd c0a7 29bd 4dfe fc3d
00000090: fd0f 793d 4b76 9bbd c6b0 ebbd a9b4 f13d
000000a0: 2067 2cbe 8e74 1b3e 97a7 aabd 0786 e6bd
000000b0: 9f02 c8bd 07a8 e03d 8e1b 373e 5556 853d
000000c0: fec1 4cbd 1dc9 f03d ec78 babd 78b3 253e
000000d0: f9c5 2c3e abbc 4bbc 89f1 01be 1c93 703b
000000e0: e564 42be c6fe 0e3d ef0d 9cbd a6b7 293e
000000f0: 1cc9 3d3d cab2 83bd 62d0 17be 1ee5 1e3e
00000100: 3732 12be c270 e2bc d26e 053e 71ca d2bd
00000110: aa91 09be eeb2 a8bd 9527 58bd 4acd 253e
00000120: 46fa 3dbe 78f8 9c3d be00 1abe 54a4 153e
00000130: 8f7a a53d 0c50 7c3d fc15 353e 063a 06be
00000140: a98b ee3d b144 2cbe 5495 e1bd 5175 a5bd
00000150: 3f40 353e 55eb 96bd d530 2ebe 9fbf 6abb
00000160: 1a0e 1ebe 7fe4 34bb e530 0d3e e140 1f3e
00000170: 8317 873d f955 c0bb 7d3e ec3d 3813 04bd
00000180: 8e13 efbd 8a02 1e3e 6009 353d d0a4 32be
00000190: 29c8 f5bc 12b7 a13d eac1 0abe 171b 41bd
000001a0: d4bc bf3c a433 f53c a45f 163e 0a40 ecbd
000001b0: bb55 973d e228 843d db16 d13d 1550 283e
000001c0: 9e17 cb3d 1a8c 0abe 4bc0 40be a46d 6e3d
000001d0: bf51 fe3d 0bda d63c 764c df3c aea1 e8bd
000001e0: 3aab fb3d 63c7 343e 9bcb eb3c d70b 0ebe
000001f0: 214f c9bd e47a b6bd 496b 39bd b678 39be
00000200: 8fe2 e63d 946f d2bd 05f9 38bc ae22 f0bd
00000210: 7cfe c53d 29f9 c63c 71e9 d83d e23f e53d
00000220: 929f 05be f63e d73d 2257 d53d 2c1b b13d
00000230: 0c6c d63d e9fc 9ebd e838 303e 85d6 e83d
00000240: a8a9 fa3d 54fb c1bd 81d3 afbd 1cc0 123e
00000250: e379 243e 3dd0 10bd 00c4 283e 8760 32be
00000260: 254a 53bd 6172 de3d b005 eabd 8ffa 09be
00000270: 036a 003e fb25 fdbc 6b2c b4bc dc0e 17be
00000280: 850c df3d d7b4 803d 5709 9ebc 3aca 3bbe
00000290: 4063 ce3c 0194 713d 37dd fbbd f8e0 953d
000002a0: 31aa 393d 18c6 8fbd 6d0a 25be de19 053e
000002b0: 4847 2b3e 95f7 643c 4593 323c b64f a1bd
000002c0: 00c6 85bd 81d8 ed3d 0a81 163e 52c7 a3bd
000002d0: 7e39 013e a227 71bd 03c8 6dbd f17a 393e
000002e0: feea 263d 5956 0d3d ec48 d4bc 3a51 31bd
000002f0: b857 3ebe a65d 44be 64a2 053e f7d7 05be
00000300: 8a24 e43d 7d0a 39be a691 2ebe 32cd cd3d
00000310: c12b 273d 60a4 0bbe 12e1 18be d411 1abe
00000320: 4603 533d 076d 8e3d 911a 333e 9703 d03d
00000330: d062 e13d 0c85 1dbe 016d e93d dc7f 27be
00000340: 697b dc3d 267f 8b3d fbc0 113e 299e 1a3e
00000350: b41d 673d 11df d7bd 1a47 2c3e 188d 0bbe
-0.14270663 -0.01688501 -0.14306219 0.1190672 0.028130021 -0.13503055 -0.056271903 0.03119707
0.11934957 -0.17803586 -0.14663301 0.085875385 0.007814219 0.18700092 0.12264654 -0.002682612
0.12731224 0.13575386 0.106297456 -0.0489078 0.027692428 0.18070355 0.036686823 0.011791669
0.04530754 0.17929935 -0.14984554 0.12661496 -0.11521607 -0.056865614 0.14590879 -0.0065800403
0.09068865 -0.10694891 -0.041419744 0.123531915 0.060806263 -0.07590922 -0.11508326 0.11802036
-0.16836214 0.15181181 -0.083327465 -0.112560324 -0.09766125 0.10969549 0.17881605 0.06510607
-0.049989693 0.11757109 -0.09105095 0.16181743 0.16872396 -0.012435119 -0.12689795 0.0036708778
-0.189838 0.03491094 -0.07619845 0.16573963 0.04633437 -0.06430586 -0.14825585 0.15517089
-0.14276968 -0.027641658 0.13030556 -0.10292519 -0.13434473 -0.08237253 -0.052772123 0.16191593
-0.18552503 0.07664579 -0.15039346 0.14613467 0.08080017 0.061599776 0.17684168 -0.13108072
0.11647732 -0.16823079 -0.1101481 -0.08079017 0.17700289 -0.07369105 -0.17010815 -0.0035819781
-0.15435067 -0.0027602015 0.13788183 0.15552093 0.065962814 -0.0058696237 0.11535356 -0.03224489
-0.11673652 0.15430656 0.044198394 -0.17445683 -0.03000267 0.07896246 -0.13550535 -0.047144976
0.02340547 0.02993185 0.14684922 -0.11535652 0.07389399 0.0645311 0.102094375 0.16436799
0.09916614 -0.13530007 -0.18823354 0.05821003 0.124179356 0.026227018 0.02725814 -0.11358963
0.12288518 0.17654185 0.02878361 -0.13871704 -0.09829546 -0.08910158 -0.04526833 -0.18112454
0.11273681 -0.10275188 -0.01128984 -0.117253646 0.0966768 0.02428873 0.105914004 0.11193825
-0.13049152 0.10510056 0.1041701 0.08647761 0.10469827 -0.077630825 0.17209208 0.11369041
0.122393906 -0.09471765 -0.08585263 0.14331096 0.16062121 -0.03535484 0.16481018 -0.17419635
-0.05158438 0.1086166 -0.11426866 -0.13474487 0.1254044 -0.0309019 -0.021993836 -0.14751762
0.1089106 0.062844925 -0.019291563 -0.18338862 0.02519381 0.05897904 -0.12298053 0.073183
0.045328323 -0.07020205 -0.16117258 0.12998149 0.1672641 0.013975044 0.01089937 -0.07876532
-0.06531906 0.116135605 0.14697662 -0.07997002 0.12619588 -0.058875687 -0.058052074 0.18113305
0.04075145 0.034506176 -0.025913678 -0.043290354 -0.1858815 -0.19176349 0.13050228 -0.13070665
0.11139782 -0.18070407 -0.17047748 0.100489035 0.04081321 -0.13636923 -0.14929608 -0.15045863
0.051516794 0.06954389 0.17490603 0.10156935 0.11005175 -0.15382785 0.11397744 -0.16357368
0.10765726 0.06811361 0.14233772 0.15099396 0.05642481 -0.105405934 0.16823998 -0.13628042

block_1.0.bias f4 [8]
00000000: 3517 723d b518 12be c048 fe3d 20ad 0a3e
00000010: c7f7 16be 0d03 92bd d42d a13c 43f2 3cbd
0.059104163 -0.14267237 0.1241622 0.13542604 -0.14742957 -0.07129488 0.019675173 -0.046129476

block_2.0.weight f4 [16, 8, 3, 3]
00000000: 3cad 623d 7700 9d3d 9170 7d3d fbb6 1a3d
00000010: 3e40 e5bd eb8a ecbc d4d0 253d d172 5e3d
00000020: 657b 4b3d df61 a1bd bb75 0a3d 5a59 063d
00000030: 0d48 f43b 1d9d f5bc 0eee 78bc fb25 d23c
00000040: 5822 cc3c 8065 bcbd a8fd 9fbc 0487 85bd
00000050: 220f 4bbd a145 243d 367b 8a3d e10f 273d
00000060: 6a5a 46bd db73 e2bd 8916 913d 1b20 e83c
00000070: 6f31 b3bb 06b0 debd 49bc 3d3d 676c 63bc
00000080: 8fac d5bd a8de d0bd 4064 66ba d33b a33d
00000090: 3efd b33d beb7 03bc 9a7b 38bc b709 88bd
000000a0: 6037 913d f65b e33c 4586 abbd 52dd eabc
000000b0: ee18 b63c 818f 76bd e96c ae3c 7795 a7bc
000000c0: 43f4 b8bd 80ae e83c a8db b0bd 9b82 d23d
000000d0: a240 bcbd 8b66 80bd 7aa6 57bd 7c14 62bd
000000e0: c7ad e4bd 2018 af3d cf05 61bc f55b 8cbd
000000f0: 3928 53bd 1105 b0bd 5a5c aebc 5574 733c
00000100: c85d cbbd 16cd 483d 0794 92bd 552b 323c
00000110: dbf5 bd3b 9f40 d93d fbe8 36bd 2c51 a73d
00000120: d977 8f3d d4ed 7dbd 836c 19bd cc61 103d
00000130: baf5 77bd 2c74 43bd 2cb2 afbd 5af0 c0bc
00000140: 5842 f8bc 4a52 b4bc 5dd0 cfbd 6278 b33b
00000150: a058 993c 903f a9bd 2c70 39bd 6d95 ef3d
00000160: 36b6 ccbd c342 19bb 5de1 a83d 875e a13d
00000170: c2f1 8b3d f447 6fbb ef46 ed3d 9916 c33d
00000180: 21ab f0bc 639b 8bbc 1ea7 a83d c5ea d63c
00000190: 0b88 da3d 13c4 d03c 3f52 a13c 72f7 ab3d
000001a0: 4c86 3ebd fead 7abd b023 783d 670d 6a39
000001b0: 92b6 36bd ff02 373d 89ca cdbd a84f 863d
000001c0: d079 bbbd 8444 b23d b06c d1bc f19c b83d
000001d0: 091b 223d 1cb4 cbbd bbaf e53d f30d d6bd
000001e0: 137d 06bd 4def 60bc 7bcf 6fbc a702 433d
000001f0: e4b8 bdbd a897 a23d 4994 88bd 40c5 b33d
00000200: 52e8 4c3d 4c51 173d fe79 053b e4db eabd
00000210: 046b e8bd 69ee 413d 661d 24bd 9636 debd
00000220: 20b4 873d 4104 903d d08a 6cbd 8ea1 ff3b
00000230: 926f 813d bff9 95bc a8af 5e3c 5391 503d
00000240: 2ebe 493d d0f2 393d 04e4 e03c 4afc 513d
00000250: 72a6 dcbd 3ad2 85bd fd69 47bd c1f2 acbc
00000260: c7ee 64bd 2a27 d13d 38f5 ed3c 78b6 8ebd
00000270: 12ab 7f3d fe56 283d fdd8 bc3d 5288 f83c
00000280: dae8 983d 1cfc 83bd d5e8 97bd a0b6 adbc
00000290: 69b0 e73c e126 a9bd c0f4 ba3d a241 d3bd
000002a0: 4d25 43bd f5ae 98bd b2ae ab3d b5a0 ee3d
000002b0: 4ea2 25bd 009f d33d fb45 693d 4c2a a2bd
000002c0: 47d6 6a3c b60a ae3d 1cf4 ebbd c811 4abd
000002d0: c747 db3d b41f 743d 40c1 eabd 0d01 ccbc
000002e0: 8b5f 9a3d 61d8 60bd d617 503c a00f c33d
000002f0: 0d6a f3bc c2c4 7cbd 0662 9abc 2018 b3bc
00000300: 6614 d53d 1ea0 eabd 5f2f a43b 3ca1 e8bd
00000310: eee2 9d3c 63f9 d8bc 2cbd 0e3d d74e da3d
00000320: ac15 b33d 73cd 143d a476 9a3d 2c3f 60bc
00000330: baa5 653d a6d4 51bd 64d5 76bd 5c62 a9bd
00000340: 589c 51bd b2ed 3ebd a3a7 2abd 7aa1 293d
00000350: c592 d73d 875e 25bd ddbe a23d 1fa4 b43d
00000360: 1fe7 d7bc cf47 233d 4905 7f3c 028b 36bd
00000370: 093e 99bd cc45 d3bd a31e 2bbd c4c5 03bd
00000380: cfa8 c43d d0a2 df3d 0c00 743d 1745 d03d
00000390: 3249 08bd ecf5 c4bd ed4c ddbd 1822 b3bd
000003a0: 0dd0 ae3d 60d9 a6bd 3e40 a0bc 7117 063c
000003b0: 84dc c7bd 4ed8 b3bd 484a 763d ab9c e6bc
000003c0: b675 b13d fe24 bcbc 8b9e 893d 60f0 df3d
000003d0: 2379 123d a2a8 743d 40ec cfbd 138c 313d
000003e0: dcbd 8b3c 22e2 543b e370 d8bc 8b4b debd
000003f0: c609 bbbd a232 3d3c 4691 763d da66 98bc
0.05534099 0.07666104 0.06187493 0.03777216 -0.11193894 -0.028874835 0.040482357 0.054308716
0.049678225 -0.078799956 0.033803683 0.032800056 0.007454878 -0.029982144 -0.015193475 0.025652876
0.02491872 -0.09199047 -0.019530132 -0.06519893 -0.04957498 0.040105466 0.06761782 0.040786628
-0.04842607 -0.11057254 0.07084376 0.028335622 -0.0054685394 -0.108734176 0.04632214 -0.013880826
-0.104333036 -0.10198718 -0.0008788742 0.07970395 0.087885365 -0.008039413 -0.011259938 -0.06642478
0.0709064 0.027753811 -0.08375219 -0.028669987 0.022228684 -0.06019545 0.021292167 -0.020457013
-0.09030964 0.02840352 -0.08635646 0.10278817 -0.09192015 -0.062695585 -0.052649 -0.055195317
-0.11165958 0.08549523 -0.013734295 -0.06853477 -0.05155203 -0.08594716 -0.021284271 0.014859279
-0.09929997 0.04902371 -0.0715714 0.010874589 0.0057971305 0.106080286 -0.04465578 0.08169779
0.07005281 -0.06199439 -0.037457 0.035249516 -0.060537077 -0.047718212 -0.085789055 -0.023552109
-0.030305073 -0.022011895 -0.10147164 0.0054769972 0.018719018 -0.08264077 -0.04527299 0.116984226
-0.099956915 -0.002338574 0.0824611 0.07879358 0.06833221 -0.0036511393 0.11585795 0.095257945
-0.029378476 -0.017041868 0.08235 0.026234994 0.106704794 0.02548412 0.019692538 0.08396806
-0.046514794 -0.061201088 0.06058091 0.00022320972 -0.044607706 0.04468059 -0.10048396 0.06558162
-0.09154093 0.087044746 -0.025564522 0.09014309 0.039576564 -0.099464625 0.112151586 -0.10451879
-0.032834124 -0.013728929 -0.01463687 0.04760995 -0.09263781 0.079390824 -0.06668908 0.08777857
0.050026245 0.036942765 0.0020366902 -0.11467722 -0.113485366 0.047346506 -0.0400671 -0.10850255
0.06626153 0.07032061 -0.05774957 0.0078012412 0.063201085 -0.018307565 0.013591684 0.050919842
0.049253635 0.04539758 0.027452476 0.051265992 -0.107739344 -0.06534238 -0.048685063 -0.021111848
-0.05589178 0.10212548 0.029047593 -0.06968397 0.062419005 0.041098587 0.09221075 0.03033844
0.07466288 -0.064445704 -0.07417456 -0.021205246 0.028282361 -0.08259369 0.091287136 -0.10315253
-0.047642995 -0.074552454 0.0838293 0.11651746 -0.04043799 0.10333061 0.056951504 -0.07918224
0.014333314 0.08498137 -0.115211695 -0.049333364 0.1070705 0.059600547 -0.11462641 -0.024902845
0.075377546 -0.054893855 0.012700995 0.095244646 -0.029713655 -0.06171108 -0.01884557 -0.02186209
0.10404281 -0.11456321 0.00501053 -0.11358878 0.019273248 -0.026486104 0.034848377 0.10659569
0.08744368 0.036328744 0.0754216 -0.013686936 0.056066252 -0.051228188 -0.0602621 -0.08270714
-0.05117449 -0.046613403 -0.041663777 0.04141376 0.10526041 -0.04037335 0.079465605 0.08820366
-0.026355324 0.039863404 0.015565225 -0.044566162 -0.074825354 -0.10316047 -0.041777264 -0.032171026
0.0960251 0.10919726 0.059570357 0.10169428 -0.03327293 -0.096172184 -0.10805688 -0.08746737
0.08535776 -0.0814693 -0.019561883 0.0081843 -0.09758857 -0.08781491 0.060129434 -0.028150877
0.0866503 -0.022966858 0.06719693 0.1093452 0.035760056 0.059731133 -0.10152483 0.043346476
0.017058305 0.0032483418 -0.026421016 -0.108542524 -0.091327235 0.011547716 0.060197137 -0.018603731

block_2.0.bias f4 [16]
00000000: 62cf 933d 7e02 0c3d 3e10 99bd 0c77 1abd
00000010: db5c 22bd bf0d c4bd 465f 8a3d e81b b83c
00000020: fe10 543d 3cf0 b3bd 5e37 b7bc 1ece a4bd
00000030: 1ae2 9b3d 82e3 9e3d 9eb7 ad3d 5bd7 64bd
0.072172895 0.034182064 -0.07473801 -0.03771119 -0.039639335 -0.09572934 0.06756453 0.022474244
0.051774018 -0.087860554 -0.022365268 -0.08047126 0.07611485 0.077582374 0.08482288 -0.05586944

block_3.0.weight f4 [32, 16, 3]
00000000: 54b8 d6bd d800 f5bd ceb9 acbd 60d1 ab3d
00000010: cb5e 053e 493a 0a3d 4ecc f63b a190 c03d
00000020: cdf9 053d 3df1 11be 8d00 983d 6a20 0f3e
00000030: 6279 c43c d506 debc f7b7 1fbd fdec b73d
00000040: 8786 9eba 4ba2 02be a473 bdbd eef9 a73d
00000050: 2694 38bd a374 29bd 22cd b63d 9a35 bd3d
00000060: 8439 863d 9b4a 0fbe 301d ddbd 71dc 0a3e
00000070: b3f2 91bd 879e bf3c 9e96 d73d 8358 f8bd
00000080: cfdc 03be 80c6 ccbc 69e1 ff3d 4587 a1bb
00000090: d593 c4bc f356 833d 02c6 cfbd 81ba 1c3d
000000a0: 8234 b73c a785 f8bd e491 4ebc f400 7a3d
000000b0: 956e da3d 7722 35bc 9f1c 3bbd f324 893d
000000c0: 1462 febc 29f5 e6bd 178e f0bc 5450 ce3c
000000d0: 60e8 e6bd aa38 063e 7b6b 4e3d c115 0f3d
000000e0: dd90 8dbd 2b02 e7bd 982a 2ebd 7a76 42bd
000000f0: 6e2c 8cbd 04ab dabb c0c3 8cbd dad3 afbc
00000100: 2dd8 10bd 4f6f 88bc 7545 5ebd 7c39 b63d
00000110: fb5f 85bd 89fb af3d 758e 5dbd 1db8 8b3d
00000120: 2844 293d 319a 1cbc 809f bb3b cc65 4f3d
00000130: e11b 69bd 949b 003d ee7c 9fbd 102f 09bc
00000140: d3e4 acbb 0a86 523d 8128 ca3d 0e89 383d
00000150: 4836 283d b28a a03d 6e55 123e fa43 263d
00000160: f63e f6bc d98f 45bd e28d e03d e570 9d3d
00000170: e923 093d 57bf a93d 1199 11be 0156 043e
00000180: 7b1a 01be be9c 0d3d bc21 863d aeb4 bb3c
00000190: 7165 a23d 4549 813d eaf2 c43d 348a 183d
000001a0: c9be efbc 3338 efbd 9d8b cd3d 3058 f93d
000001b0: f92b b5bd a4fb b8bc 3bc6 b4bb 1f8f 0db9
000001c0: 6940 133e c686 943d f55c 4ebd 6975 3cbb
000001d0: d67c f3bd 6a8e 543d 1962 84bc 1f7b e5bd
000001e0: d0ef 92bc 1ee8 df3d 77f4 5cbd 91e8 9abd
000001f0: c922 7a3c b6ee 74bd 0db5 aebc bce1 06be
00000200: 11b3 ac3d e2d7 d7bd c469 68bd f330 30bd
00000210: 5dc3 663d 1fb8 7dbc 0d2f 483b 22c6 84bd
00000220: 6fd0 bfbc 7d31 c73d 5297 c93b 57d5 70bd
00000230: 31d9 7c3c 9c96 903d 600c 13bd 24fb 29bd
00000240: 5dad 603b 43bf 79bc 4bdf 9bbd a28c 913c
00000250: 445f 02be 0d14 383c 2c45 c93d fe76 b93d
00000260: f4a5 4ebd 99ad 0f3d 364c 19bd 4d7f abbd
00000270: 079b 58ba c5e3 393d 815d d9bd c941 9cbc
00000280: f52b 08be 2144 82bd 8372 133d 7ad4 733d
00000290: 658b b2bd c931 a3bd a264 c2bc 3ba8 9e3c
000002a0: 3c48 cdbd 3eef 68bd d1ef c83d e170 95bd
000002b0: b422 eebb 132a cc3d 5115 a4bd 0496 ac3d
000002c0: 90e6 dbbd d21b 0c3e 6ed7 c63d 983c 09be
000002d0: fd39 b3bd 30ab d03b 7951 90bd f0cf 663d
000002e0: 5662 c6bd d735 e83d c16b d03d c0a6 a0bc
000002f0: ffef 013e 8f61 8fbd d571 4f3a ed34 e3bd
00000300: a45e 053e 2e51 6fbd 56a6 033e abd8 a6bd
00000310: c894 543d bd19 cb3d 450c 0f3e 41dd 0dbe
00000320: 0e53 10be f02b 50bd fed0 983d 2753 d03d
00000330: 9e14 c3bc 8a92 afbc d741 903d 544f 143d
00000340: f79d 883c a579 b6bd f304 863d 172d b4bc
00000350: 3fea ce3d 3d48 87bd e6f1 223d 7e73 aa3d
00000360: fe95 21b8 58c6 07be 7ddd 103e 5bd9 0dbe
00000370: 57c8 a23d 0632 0bbe 2079 f03d 044c b43d
00000380: b9dc 0e3e 02ae f1bc 3826 ecbd 17bb 5b3d
00000390: f2f0 c9bd 5cd3 ac3d 3a53 ae3c 0e64 f3bd
000003a0: 432f e53d ccc5 9a3d 9c13 c5bc de32 20bd
000003b0: 00cf 0a3e 5297 c9bb f438 0f3e 0c6a 103a
000003c0: 408c 07be ad0c 24bc d73a 02bd 3a20 83bc
000003d0: 5a36 8cbd e5ff f53d dd1e a83c bbf9 56bd
000003e0: 10cd 063e 956b 123d d475 dabc f69d 803d
000003f0: 10b6 493d e2f0 d7bd 4814 01be fe8e fd3d
-0.104843765 -0.119630516 -0.08433877 0.083895445 0.13024442 0.03374699 0.0075316792 0.09402586
0.03270893 -0.14252181 0.0742198 0.13977209 0.023983661 -0.027102867 -0.038993802 0.08980749
-0.0012094536 -0.12757222 -0.09250572 0.08201967 -0.04506316 -0.041371 0.08925845 0.09238739
0.06553939 -0.13993303 -0.10796583 0.13560654 -0.07126369 0.023391021 0.10526775 -0.12126257
-0.128772 -0.024996996 0.124941655 -0.0049294555 -0.023996273 0.064130686 -0.10145189 0.0382638
0.022363905 -0.12134867 -0.012608025 0.061036065 0.10665623 -0.01105558 -0.045681592 0.06696501
-0.031052627 -0.11277229 -0.029364629 0.025184788 -0.11274791 0.13107553 0.05039547 0.034932856
-0.06912396 -0.112797104 -0.04252109 -0.04747627 -0.06844412 -0.0066732187 -0.06873274 -0.021463323
-0.03536241 -0.016654639 -0.054265458 0.08897683 -0.065124474 0.085928984 -0.054090936 0.06822226
0.041324764 -0.0095582465 0.005725801 0.05063419 -0.056911353 0.03139837 -0.077875 -0.008373037
-0.0052763014 0.05139736 0.09871007 0.04505258 0.04106739 0.07838954 0.14290401 0.04059217
-0.030059319 -0.048232887 0.10964562 0.076875485 0.033481512 0.08288448 -0.14218546 0.12923433
-0.12607758 0.03457331 0.06549403 0.022913303 0.07929505 0.06312803 0.09616645 0.037241176
-0.029265778 -0.11680641 0.10036395 0.121750236 -0.08846278 -0.02258093 -0.005516795 -0.00013500125
0.1438004 0.072522685 -0.05038162 -0.0028756505 -0.11889045 0.05189363 -0.016160058 -0.11205124
-0.017936617 0.10932945 -0.053944077 -0.0756389 0.0152670825 -0.059797965 -0.021326566 -0.13172048
0.08432592 -0.10539223 -0.05674149 -0.04301543 0.056338657 -0.015485792 0.0030545623 -0.06483103
-0.023414819 0.09726236 0.006152072 -0.058797207 0.015432642 0.070599765 -0.035900474 -0.041499272
0.003428302 -0.015243354 -0.07610949 0.017767254 -0.12731653 0.011235249 0.098276466 0.09055899
-0.050451234 0.035077665 -0.037426196 -0.0837389 -0.0008262847 0.045383234 -0.106135376 -0.019074338
-0.13298018 -0.06360651 0.03599788 0.059528805 -0.08717994 -0.0796848 -0.023729626 0.019367328
-0.10023543 -0.056868784 0.09811366 -0.072969206 -0.0072673205 0.099689625 -0.08011878 0.08427051
-0.10737336 0.13682488 0.09709059 -0.13402021 -0.08751295 0.0063680634 -0.0704679 0.05635065
-0.09686725 0.11338394 0.101768024 -0.019610763 0.12689207 -0.0700103 0.00079133856 -0.11094079
0.13024384 -0.05842703 0.12856421 -0.08146795 0.0518997 0.099170186 0.13969524 -0.13853933
-0.14094183 -0.050823152 0.07461737 0.1017211 -0.023813542 -0.02143218 0.07043808 0.036208466
0.016676886 -0.089099206 0.06543913 -0.021994157 0.10103273 -0.06605575 0.039781474 0.0832281
-3.8525082e-05 -0.13259256 0.14146991 -0.13852446 0.07948368 -0.13593301 0.11741853 0.08803561
0.13951387 -0.029501919 -0.11530727 0.05364522 -0.0986041 0.08438751 0.02127992 -0.11884318
0.11190655 0.07557258 -0.024057202 -0.03911101 0.13555527 -0.006152072 0.1398657 0.0005508966
-0.13237095 -0.010012788 -0.031794395 -0.016006578 -0.06846304 0.12011699 0.02052253 -0.052484255
0.13164163 0.03574713 -0.026667513 0.06280129 0.049245894 -0.105439916 -0.12605393 0.12380789

block_3.0.bias f4 [32]
00000000: 0bb0 a0bd 4415 42bd fa56 86bd 655f eb3d
00000010: 2d4f 933d 7ed0 d0bd a350 213d 0ebc 8a3d
00000020: f98d 163d f21f a73d 3e41 023d 2a78 1abd
00000030: ba19 13bd 7f38 523d 6f7e 843d abda 93bd
00000040: 8100 bc3d 3a16 4bbd 4a42 1c3a 9753 7fbd
00000050: ae8a adbd 4781 3abc 0af7 d23d 544c 263d
00000060: 1856 93bd 07da 87bd 4859 0bbd 7615 0a3e
00000070: 3b6e f43b 175a c73d 2259 c3bd ab6b d73c
-0.078460775 -0.04738356 -0.06559558 0.114928044 0.07192836 -0.10196017 0.03938354 0.0677415
0.03675649 0.0816039 0.0318005 -0.037712254 -0.035913207 0.05132341 0.06469428 -0.07219442
0.091797836 -0.049581744 0.00059608056 -0.062335577 -0.08473717 -0.011383361 0.10301025 0.040600136
-0.071941555 -0.06633382 -0.034020692 0.13484749 0.0074594296 0.0973398 -0.09538485 0.026296457

block_4.0.weight f4 [64, 32, 3]
00000000: 7d65 99bd 2205 883b 4da2 9f3d fea4 963d
00000010: 6f3b 61bd 315e 6dbd b010 8dbd 7d7d c7bd
00000020: 71d9 72bd a5f8 6f3d fbab 85bd b3db 4ebd
00000030: 53cc 6e3d b529 b83d 6611 4f3d 2860 a9bb
00000040: c130 2f3d daed 9c3c 8c59 71bd 537d 023a
00000050: 0916 98bd 1c8f 823c d9b4 a9bd f567 873c
00000060: d323 b9bd 9c66 c23d 82d7 87bd bec3 90bd
00000070: 832f 8b3d d9de 9dbd 2426 81bd be76 a2bd
00000080: 13ae 193d 835a 4a3d 24b2 acbd fba5 9cbd
00000090: f057 c9bd 01f2 8dbc 8e36 c8bc a5b3 483d
000000a0: e473 c0bc 26e1 09bc 9350 d33b e2a6 bb3d
000000b0: 3a18 5f3d 0da0 623d 9813 cabb 65aa 8b3d
000000c0: 100b 1fbd a19d 82bc 1d04 703d 7327 b63c
000000d0: 8085 3fbc ee42 f63c ff85 c13d b62a c3bd
000000e0: c7f6 aa3d e6d2 36bd c965 c8bd c8e9 a1bc
000000f0: 8102 1fbd 5cea 373d 1811 ee3c b755 54bd
00000100: a407 cebc b35d 0b3d 2745 23bd c336 7d3d
00000110: aefd 5abd 0a6f 3c3d 8f37 acbd 2800 d0bd
00000120: cea4 943d 99dd f839 7f92 b9bd 20c7 7f3d
00000130: 2385 37bd ae43 64bd da99 d0bd cc5d 86bd
00000140: 79ea 90bd 3462 cbbc 101b b5bd bf4f bc3c
00000150: cfa1 933d 30ce 0a3d 91e9 90bd df1a 633d
00000160: 9642 913d d5b2 d4bb f755 cfbd fde4 00bd
00000170: 431f 7d3d ea20 a43c e41c c93d 937f 81bc
00000180: f3d9 afba 03ab bdbc cf47 e13b 15aa aa3d
00000190: 9544 a5bd bbb9 e3bc f91d 4bbb 727a 0abb
000001a0: 35da 6ebc a383 b4bd 8197 b03c fb59 76bd
000001b0: a7a2 983d 930b 8e3d c6d0 2bbc 7ace 19bc
000001c0: 6c87 cabd f2af c6bd 0086 b93c 8b41 b9bd
000001d0: de57 ba3d 682c 7cbd 63b4 cc3a a357 593d
000001e0: 90c4 e73c 7225 c4bc 123d 253d c76c 43bd
000001f0: 8fe4 5a3d cddc b63d c399 c4bd 9ba5 c53c
00000200: 56f6 5c3d ae4d 98bd c3e2 35bd 4083 b73d
00000210: 3d92 d83c 9e48 123d c718 23bc 9157 b73c
00000220: 0283 93bd 8238 3ebd 352f c73d 4ba4 d0bd
00000230: 17d6 b43d f055 893b a3af 88bd 4822 a83c
00000240: e851 b1bd da62 62bd 4cbc 423d c2c9 0f3c
00000250: 4634 d03d 6c20 953b 44b4 933c da2b 703d
00000260: 8bc3 9a3d 062f 893d 2097 2abd 25ce 50bc
00000270: a8ff 3abd 3acc 12bc c6e2 b3bd 4e91 92bd
00000280: a475 7a3b 6fbc 123d c189 843d 3796 c4bd
00000290: 3a06 c63d 546d 963d bae7 cb3c 83ba d43c
000002a0: 00db 3f3d dd92 263d e560 a9bd e774 473d
000002b0: 1c91 bf3d 8ddb 76bd 8875 9b3d eec8 8b3c
000002c0: ea95 5cbd 189f bebd 6d41 193c 2f42 c1bb
000002d0: dcda 9d3d a722 16bd fe5a 63bc 2c3c b9bd
000002e0: 34bd 953d a18a 36bd 1a46 aa3b 1900 21bd
000002f0: 97c1 503c 1750 6fbd e21d 673d 8515 aabb
00000300: 434c d33c fe39 bd3d 2674 51ba 5439 a1bd
00000310: 0392 cb3d 2dc0 c23c 3eea 61bc 18b6 86bd
00000320: 4dd3 893d d32b 5b3d bd71 28bd 6c21 9cbd
00000330: f0e7 d13c 7913 a33c 7fe1 bdbd c79d 2dbd
00000340: 671d e1bc 251a 30bd 636a fb3a 21dd 77bd
00000350: db37 c63d 4597 3bbc b183 be3d 0b00 7e3d
00000360: 2ff8 543d a728 80bd 1205 95bd 3690 9e3d
00000370: 4f62 b1bd a840 a4bd ef53 123d 4020 533c
00000380: 0ea5 913d b289 9d3d 95a9 c9bd e698 c83d
00000390: 605d 163c 316c 543d 90de d0bd 1616 68bd
000003a0: 48c4 b53d 6809 3e3d fb2f a53d 24fe 4fbc
000003b0: ada3 cbbb d6cb 67bd bcff 8b3c f4df f53c
000003c0: 394b 6cbc d052 8bbd da9a 0abd b6d9 7bbd
000003d0: b226 943d 3f8c af3d b17d 9b3d a4cf 8b3c
000003e0: 0f87 92bd 20ae a13d 5d7a 83bc bfb8 3bbd
000003f0: 9227 78bd 5b5e e53a 6f0d b03d e3ec c9bd
-0.074900605 0.0041510025 0.07794628 0.073556885 -0.05498832 -0.057951156 -0.068879485 -0.09740732
-0.0592894 0.058586735 -0.06526943 -0.05050249 0.058300328 0.0899233 0.0505537 -0.0051689334
0.042771105 0.019156385 -0.05892329 0.0004977781 -0.07426078 0.01593738 -0.08286447 0.016529063
-0.09040036 0.094922274 -0.06632902 -0.07068585 0.067961715 -0.077085204 -0.06306103 -0.079328045
0.037519526 0.049402725 -0.08432415 -0.07648846 -0.09831226 -0.01732731 -0.024440076 0.048999447
-0.023492761 -0.008415496 0.006448814 0.0916269 0.054466464 0.055328418 -0.0061668865 0.068196096
-0.03882891 -0.015944304 0.058597673 0.022235608 -0.011689544 0.030061211 0.09449386 -0.09529631
0.0834785 -0.044634722 -0.09785039 -0.019764796 -0.038820747 0.044901237 0.029060885 -0.051839557
-0.025150128 0.034024905 -0.03986087 0.061819803 -0.053464584 0.046004333 -0.084090345 -0.1015628
0.072579965 0.0004746735 -0.09061145 0.06244576 -0.044804703 -0.055728607 -0.10185595 -0.06560859
-0.07075972 -0.0248271 -0.088430524 0.022987245 0.07208597 0.033888042 -0.07075799 0.05544555
0.070927784 -0.006491045 -0.10123818 -0.03146838 0.06179739 0.020035226 0.098199636 -0.015807902
-0.0013416394 -0.023152834 0.0068750153 0.08333222 -0.080697216 -0.027798524 -0.0030993207 -0.0021130112
-0.014578392 -0.0881417 0.021556618 -0.060144406 0.074528985 0.06935801 -0.010486787 -0.009387607
-0.09889111 -0.09701528 0.022646904 -0.090457045 0.090987906 -0.061565787 0.0015617724 0.053062093
0.02829197 -0.023943637 0.040341444 -0.04771116 0.053440627 0.08928833 -0.0959964 0.024126818
0.05394586 -0.07436691 -0.04440571 0.08960581 0.02643692 0.035713784 -0.009954638 0.022380622
-0.07202722 -0.04644061 0.09725801 -0.101875864 0.08829897 0.0041911528 -0.06674125 0.02052416
-0.086582005 -0.055270053 0.047542855 0.00877613 0.1016622 0.004550984 0.018030293 0.05863557
0.07556828 0.06698422 -0.04164803 -0.012744461 -0.04565397 -0.008959824 -0.08783488 -0.07156621
0.0038217092 0.035824236 0.06471587 -0.09598964 0.096691564 0.073450714 0.02489077 0.025967842
0.046839714 0.040667403 -0.08270434 0.04869547 0.09353849 -0.060267974 0.07590777 0.017063584
-0.053853907 -0.093076885 0.009353978 -0.0058977823 0.0770776 -0.03665414 -0.013876675 -0.0904468
0.07311478 -0.0445658 0.005196345 -0.039306734 0.012741468 -0.05842599 0.056424983 -0.0051905536
0.0257932 0.09239577 -0.0007990025 -0.078722626 0.09939959 0.023773277 -0.013788758 -0.065777004
0.067297556 0.05350859 -0.041124094 -0.07623562 0.025623292 0.019906746 -0.092715256 -0.042386796
-0.02747984 -0.042993683 0.0019181486 -0.06051362 0.09678622 -0.01144964 0.09302462 0.06201176
0.0519945 -0.06257754 -0.07276358 0.0774235 -0.08661329 -0.08020145 0.035724577 0.012886107
0.0711156 0.07692279 -0.09846798 0.09794788 0.009177536 0.051860992 -0.101987004 -0.056661688
0.08875328 0.04639569 0.08065792 -0.012694869 -0.00621458 -0.056590877 0.017089717 0.030014016
-0.014422231 -0.068029046 -0.033839084 -0.061486922 0.07233943 0.08571672 0.07592333 0.017066784
-0.07154667 0.0789454 -0.016049558 -0.045830484 -0.060584612 0.0017499434 0.08596312 -0.09859636

block_4.0.bias f4 [64]
00000000: 9d33 983d 8570 2fbc 7623 3d3d b8ec c93d
00000010: 5162 85bd e5c4 ca3d 36cf 85bd 742f 98bd
00000020: 81d1 a63c a3b5 c2bc 6b2d dbbc bbbf 463d
00000030: 9333 73bd 8f3c 373d 5ba0 8f3d b4a4 a2bd
00000040: 77d2 b83d ddf8 053d b91d bebd 0d21 afbd
00000050: 1146 043d 0713 8bbd 5570 c4bd dcb7 58bd
00000060: 12a7 6fbd 5b71 033d dc72 c43c 4a4a c2bd
00000070: 3765 b9bc 4b32 7fbd 84c9 793c 7c37 9d3d
00000080: 32e9 9c3d a132 87bc ecef 80bd 559d 3a3d
00000090: e2d5 a9bd f07f 88bd b134 edbc 7f3a 3fbd
000000a0: 71b3 a33d 0895 81bc 825e 09ba 4805 76b9
000000b0: 7295 12bd 6d62 f2bc 06db 913d 4f34 633d
000000c0: 68a9 c1bd cc91 aabd 872b 2abd 0589 1bbc
000000d0: 67fa 393d 9999 303d 7dd3 7f3d ccaf bdbd
000000e0: 3468 c93d 56ed b33d 09b6 4f3d 53c4 cfbd
000000f0: 77f5 fd3c e1c4 083d 1e9a ec3c ae30 d33c
0.074317195 -0.010707979 0.046176396 0.09859604 -0.06512893 0.09900836 -0.06533663 -0.07430926
0.020363571 -0.023768252 -0.026755055 0.048522692 -0.059375357 0.044735488 0.07013007 -0.07941571
0.09024518 0.032708038 -0.09283013 -0.08551226 0.032293383 -0.067907386 -0.09591738 -0.052909717
-0.05850894 0.032090526 0.02398055 -0.09486826 -0.02263127 -0.062303822 0.015245799 0.076765984
0.07661666 -0.016503634 -0.062957615 0.0455602 -0.08292748 -0.06665027 -0.02895579 -0.046686646
0.0799321 -0.015818134 -0.0005240218 -0.00023462356 -0.035787053 -0.029587949 0.071218535 0.055469807
-0.0945614 -0.0832859 -0.041545417 -0.009493117 0.045404818 0.043115232 0.06245755 -0.09262046
0.09834328 0.087855026 0.05071071 -0.10144868 0.031000836 0.033390883 0.028882083 0.025780048

linear.weight f4 [10, 64]
00000000: 88c1 1b3d 183a a8bc d02c 953d b88d 9b3c
00000010: 5e69 d83d 40a5 08bb b0ed 993d 0053 e3bd
00000020: d01e 323d 0207 ad3d 0cf1 2fbd e282 f0bd
00000030: 9047 203d 2424 eb3d be2d f73d fe1e c7bd
00000040: c8db 3ebd 10c5 1a3d 48cb 84bc 6eeb d83d
00000050: 4433 dd3d 0075 c0bd b0b5 c13d 5829 d5bc
00000060: d8b8 593d 2083 7f3d 2606 b23d 94be d5bd
00000070: e093 963d 8813 b93c a05e 0d3c 283b 2b3d
00000080: 108d cfbc cc5b bdbd 20ae 7f3d b80a a5bd
00000090: bab5 c63d b836 fe3d 60a8 e0bc 88c5 acbc
000000a0: 6c95 00bd 6806 673d 7a4e aabd 065c e6bd
000000b0: 6461 98bd b065 98bd 5e3b 94bd 7834 fd3c
000000c0: a42d ac3d 7c7d 8abd 9ed1 903d 222f cabd
000000d0: 7ca4 ba3d 00f0 1b3d d0cb e6bd 3ad4 87bd
000000e0: 1641 fcbd 00c0 70bd c477 c03d 7e38 e03d
000000f0: 00a0 2abc fcd2 46bd 44a5 683d e011 5dbd
00000100: a2dd a4bd 305c 893d 28cc f83c 4488 02bd
00000110: 0e61 b83d b6e0 9c3d 9477 2b3d a082 15bd
00000120: 8027 acbd 2828 f8bc 523c f8bd c893 b6bd
00000130: b001 e03d d895 a3bc 4080 fb3d 3c65 2b3d
00000140: f0ca 1ebc e0b5 6abc e24a cabd 8092 dfbd
00000150: 1497 6b3d d890 88bd 30ce 2c3c 920e a43d
00000160: c89f e8bd 90a6 68bc 367d bfbd 4e46 f93d
00000170: d468 c1bd 608e 483c e0ad 9d3c 14a0 dc3d
00000180: f0ed dcbc 547c a0bd 0017 d23a ce3d 99bd
00000190: 987b 24bd b267 92bd f439 d13d 4cc3 5dbd
000001a0: 20e3 f13b daf7 ca3d b243 a33d 861c ccbd
000001b0: 3282 9d3d e43f cb3d 103f 913c b0ec 13bc
000001c0: eca0 503d 24f7 dd3d 2001 8ebb 34a9 d43d
000001d0: 78fb 593d 5a36 fcbd 6ab0 f63d 9009 eabd
000001e0: a898 89bc 0058 a23d f292 82bd a0af 3b3c
000001f0: 108f 64bd 26c4 95bd 3c42 0fbd e0c4 113d
00000200: 6812 443d 5e67 9d3d c82c 88bc 9a74 f8bd
00000210: e6b0 b0bd c0d1 f53b 3ee3 ab3d b4ab 9bbd
00000220: 384b f0bd 5898 f8bd 6cf0 b8bd 28b9 b43d
00000230: 4038 d4bc 3014 1e3d 62a9 b93d 40c7 be3b
00000240: 8e59 cbbd c08c e83c d25f c53d 02a7 a13d
00000250: 102f b13d 30d1 9e3d 0604 cabd 9cba a3bd
00000260: 268c c5bd 4efb fbbd b47a 12bd 740b 693d
00000270: 58d8 ebbd f463 c23d aca2 753d 5461 08bd
00000280: 145e a93d b83d 673d 5844 ecbd 34e1 213d
00000290: 809a f9ba c03f ad3c c876 0f3d f886 e83c
000002a0: 7a34 dc3d 7015 b1bd e8c6 8d3d 94d0 d1bd
000002b0: e022 af3c 884f 453d 5cad 50bd 9045 7b3d
000002c0: e099 703c 64b9 12bd 00f9 35ba 4c41 3e3d
000002d0: c0c6 2abd 60e2 b43d 7c63 363d f670 fa3d
000002e0: 906c 91bd 405f 24bb e805 37bd 360f e03d
000002f0: 86a0 d2bd 62ab b43d ac70 313d c04c 8d3b
00000300: 524a febd a2e5 c8bd f48e 2d3d d46e afbd
00000310: 0092 6d3c 8888 afbd a651 c23d 18bb 753d
00000320: 9437 31bd 7cd0 a23d 00c1 d0ba e8ac b33d
00000330: c236 d1bd e093 633c 4041 233d b020 7d3c
00000340: 7ce5 9abd 8071 efbc b811 913c 5003 afbc
00000350: c41d f83d 4062 b5bd e807 ad3d 9a08 e1bd
00000360: 60cd 803d a4ef 67bd ec7f 9d3d 36a2 a5bd
00000370: cc4c 0dbd 7678 b43d 90f1 ffbd c0d6 b9bd
00000380: 3432 813d ac56 d0bd 7844 d93d a0e0 c2bc
00000390: 5cfe f43d 4aac c53d b8b7 c03d 48f6 a1bd
000003a0: 0052 e3b9 d0f9 9abc 8c88 c33d 38f9 ad3d
000003b0: 50be 7abd 4e1d 8fbd 10bc c03c b038 93bd
000003c0: 00f6 6abd a059 253c 6e24 9bbd 98af f3bc
000003d0: 48f4 bb3d 6479 f13d 12f9 a73d c074 f0bb
000003e0: 482c 03bd 849b db3d 10a3 31bc b0aa 2d3c
000003f0: a828 f43c f0d9 2fbd 40e8 953d a8c7 b5bd
0.038026363 -0.020535514 0.07283938 0.018988475 0.10566972 -0.002085045 0.075160384 -0.11099815
0.043486416 0.08448602 -0.04295449 -0.11743714 0.039130747 0.11481503 0.120692715 -0.09722708
-0.04659632 0.03778559 -0.016210213 0.1059178 0.10800794 -0.09397316 0.09458482 -0.02602069
0.053154796 0.06238091 0.08692579 -0.104367405 0.07352424 0.022592321 0.008628517 0.041804463
-0.025335819 -0.092460245 0.062421918 -0.08058685 0.0970263 0.124127805 -0.027424037 -0.021090284
-0.0313925 0.056402594 -0.083157495 -0.11248021 -0.07440451 -0.0744127 -0.07237886 0.030908808
0.08407143 -0.067622155 0.07071231 -0.09872271 0.09113404 0.03807068 -0.11269343 -0.06632276
-0.12317102 -0.058776855 0.093978435 0.10948275 -0.010414124 -0.048541054 0.056798235 -0.053972125
-0.080500856 0.067070365 0.030370787 -0.031868234 0.09002887 0.07660048 0.041862085 -0.036501527
-0.084059715 -0.030292585 -0.1212088 -0.08914906 0.10937822 -0.019968912 0.12280321 0.04184459
-0.009691939 -0.014325589 -0.09877564 -0.109166145 0.057517126 -0.06668252 0.010547206 0.080105916
-0.11358601 -0.014199868 -0.09350054 0.12171613 -0.094438225 0.012240976 0.01924795 0.1077272
-0.026968926 -0.07836214 0.0016028583 -0.074824914 -0.04015693 -0.071486846 0.10216132 -0.054141328
0.0073818117 0.09910555 0.07971896 -0.09966378 0.076908484 0.099242955 0.017730266 -0.009028599
0.050934717 0.10838154 -0.00433363 0.103838354 0.053218335 -0.12315054 0.12045367 -0.11427605
-0.016796425 0.07926941 -0.06375684 0.0114554465 -0.055800498 -0.07312803 -0.034975275 0.035588145
0.047869116 0.07685731 -0.016622916 -0.12131615 -0.08627491 0.007501811 0.083929524 -0.07601109
-0.11733097 -0.12138432 -0.09030232 0.08824378 -0.025905728 0.03859347 0.0906551 0.0058220923
-0.099291906 0.028387427 0.09637417 0.07893182 0.086515546 0.07754743 -0.09864049 -0.07994577
-0.09645872 -0.12303792 -0.03576155 0.05689569 -0.11515874 0.09491721 0.05996959 -0.033295944
0.08269897 0.056455344 -0.11536473 0.03952141 -0.0019043237 0.021148562 0.035025388 0.02838467
0.107521966 -0.08646667 0.06922704 -0.10244861 0.021378934 0.04817155 -0.05094658 0.061345637
0.014685124 -0.035821334 -0.0006941706 0.04644899 -0.04169345 0.0883224 0.04452847 0.12228577
-0.07100785 -0.0025081187 -0.044683367 0.10940401 -0.10284524 0.08821751 0.043320343 0.004312128
-0.12416519 -0.09809424 0.04237266 -0.08566061 0.014500141 -0.08570963 0.094882295 0.05999288
-0.043265894 0.079499215 -0.0015926659 0.087732136 -0.10215522 0.013890237 0.03985715 0.015449688
-0.07563302 -0.029228926 0.017708644 -0.021363884 0.12115052 -0.0885663 0.084487736 -0.10987969
0.06289172 -0.056625023 0.07690415 -0.0808758 -0.034497067 0.088120386 -0.12497246 -0.090741634
0.063084036 -0.10172781 0.106087625 -0.02378875 0.11962578 0.09652002 0.094100416 -0.079083025
-0.0004335791 -0.018917948 0.095475286 0.084948 -0.061216652 -0.06988011 0.023527175 -0.07188547
-0.05736351 0.010092169 -0.07575308 -0.029746816 0.09177452 0.117907315 0.08201803 -0.0073381364
-0.03202465 0.107230216 -0.0108421 0.010599777 0.029804543 -0.04293245 0.07319689 -0.08875972

linear.bias f4 [10]
00000000: c8ae 8f3d f094 f9bd 2861 fcbc 985f 52bd
00000010: 0094 6dbc 0068 2b3c 6ed1 89bd c075 bc3d
00000020: 266e f93d 48db 94bc
0.07015759 -0.12186611 -0.030808046 -0.051360697 -0.014500618 0.010461807 -0.06729399 0.092021465
0.12179212 -0.018170968
